Model quantification/model/yolobody0713.tflite (tflite, 41136 bytes, 13 tensors)

model_1/conv2d_1/Conv2D i1 [8, 3, 3, 3]
2 84 8 -8 33 -57 86 -62
22 10 60 58 -67 69 4 73
-127 -102 9 -95 -40 -55 -23 -79
104 81 51 63 37 -62 -96 76
109 -109 40 51 -31 -81 127 -75
69 11 -29 -82 112 -48 97 -58
-37 -33 78 4 86 3 -47 -13
46 -55 116 4 8 41 46 38
-89 24 -58 -40 117 -5 -29 97
40 -81 -52 -98 31 -75 -127 81
70 -86 -59 83 77 -106 53 -70
95 -80 3 -68 -86 -68 -127 -125
-105 106 -59 26 34 -104 38 -30
-75 -127 44 -65 -60 28 45 -127
52 -8 -68 -21 95 -42 -36 -9
3 -40 48 43 -58 -13 10 14
-38 -40 52 -53 94 -54 25 -56
-66 -4 -70 -15 38 50 69 -110
-41 89 85 13 85 107 -92 45
-80 -122 -15 34 -48 -56 127 -106
91 35 28 -24 -51 59 94 18
41 -38 84 -119 -127 118 100 126
7 20 30 -5 -122 50 121 29
11 13 111 25 -2 122 -25 -76
12 -71 49 -48 -36 -26 4 -3
-57 41 -58 12 55 33 -127 47
-88 -72 3 45 -55 82 -1 -23
00000000: 0254 08f8 21c7 56c2 160a 3c3a bd45 0449
00000010: 819a 09a1 d8c9 e9b1 6851 333f 25c2 a04c
00000020: 6d93 2833 e1af 7fb5 450b e3ae 70d0 61c6
00000030: dbdf 4e04 5603 d1f3 2ec9 7404 0829 2e26
00000040: a718 c6d8 75fb e361 28af cc9e 1fb5 8151
00000050: 46aa c553 4d96 35ba 5fb0 03bc aabc 8183
00000060: 976a c51a 2298 26e2 b581 2cbf c41c 2d81
00000070: 34f8 bceb 5fd6 dcf7 03d8 302b c6f3 0a0e
00000080: dad8 34cb 5eca 19c8 befc baf1 2632 4592
00000090: d759 550d 556b a42d b086 f122 d0c8 7f96
000000a0: 5b23 1ce8 cd3b 5e12 29da 5489 8176 647e
000000b0: 0714 1efb 8632 791d 0b0d 6f19 fe7a e7b4
000000c0: 0cb9 31d0 dce6 04fd c729 c60c 3721 812f
000000d0: a8b8 032d c952 ffe9

model_1/separable_conv2d_1/separable_conv2d/depthwise1 i1 [1, 3, 3, 8]
-31 15 15 127 -127 119 -2 -79
16 93 -31 12 -82 -87 -76 -127
58 104 -102 -96 24 99 -127 -101
-104 -42 127 85 -72 57 20 67
44 19 10 -32 -69 6 114 -88
-82 -24 -49 -125 78 -116 103 90
127 -127 36 106 70 80 57 74
12 35 56 -83 125 -127 39 42
-31 -54 68 -46 41 50 -75 118
00000000: e10f 0f7f 8177 feb1 105d e10c aea9 b481
00000010: 3a68 9aa0 1863 819b 98d6 7f55 b839 1443
00000020: 2c13 0ae0 bb06 72a8 aee8 cf83 4e8c 675a
00000030: 7f81 246a 4650 394a 0c23 38ad 7d81 272a
00000040: e1ca 44d2 2932 b576

model_1/separable_conv2d_1/separable_conv2d i1 [16, 1, 1, 8]
37 84 -127 8 0 -13 -112 99
37 18 57 127 -11 -25 -53 28
-127 -73 -69 53 24 107 -93 110
-15 108 77 85 125 7 -7 127
-59 -33 -22 -3 -127 -18 -8 -65
6 -73 -30 41 16 66 -127 -74
83 -52 58 93 -44 11 127 -62
24 -68 127 40 -91 70 56 -1
-56 -39 -61 63 127 -105 91 -106
-127 51 79 110 -74 -109 77 35
27 -41 76 -3 127 33 -14 -45
36 -66 -127 10 -84 -49 -31 -53
73 58 8 127 127 17 31 37
106 27 -30 -127 -44 77 -13 5
82 -127 79 29 68 44 -106 -100
-71 -42 22 51 6 77 46 -127
00000000: 2554 8108 00f3 9063 2512 397f f5e7 cb1c
00000010: 81b7 bb35 186b a36e f16c 4d55 7d07 f97f
00000020: c5df eafd 81ee f8bf 06b7 e229 1042 81b6
00000030: 53cc 3a5d d40b 7fc2 18bc 7f28 a546 38ff
00000040: c8d9 c33f 7f97 5b96 8133 4f6e b693 4d23
00000050: 1bd7 4cfd 7f21 f2d3 24be 810a accf e1cb
00000060: 493a 087f 7f11 1f25 6a1b e281 d44d f305
00000070: 5281 4f1d 442c 969c b9d6 1633 064d 2e81

model_1/conv2d_2/Conv2D i1 [16, 3, 3, 16]
77 77 37 39 9 7 45 -91
-9 75 -54 13 43 55 15 -5
-38 1 -29 1 46 -58 -66 -72
-2 22 34 39 -54 30 -27 40
-50 -83 -10 -42 24 -6 51 47
55 -61 36 -7 -23 4 20 34
-53 3 35 -44 94 112 23 -35
94 25 32 23 12 -23 40 23
103 37 91 -27 -30 -45 35 4
3 -55 -18 -67 127 46 49 4
19 47 -7 41 -36 -59 -43 -101
10 84 -94 48 64 31 -36 18
13 31 24 60 -61 -80 6 -12
-5 -23 27 -82 83 52 59 61
7 -48 -9 -54 95 60 41 -35
-16 84 -31 23 -18 42 33 49
17 -84 19 42 -80 26 -75 26
42 -10 26 -10 -51 9 -73 -53
56 42 80 -13 12 33 -46 -4
25 7 10 24 -10 61 -66 4
-2 61 -45 58 -5 -27 36 47
-127 15 -49 -49 19 -26 -63 9
-66 -3 -13 -75 -44 -20 -31 20
34 12 42 66 -71 59 30 -29
17 58 1 -11 48 29 75 8
27 -14 -93 61 -4 -36 -26 49
-51 33 53 10 -110 -35 40 -18
-116 0 -47 -65 -26 -38 -73 -39
0 -5 54 -42 -1 0 -42 -34
-14 -57 8 -5 -18 -40 -40 -69
16 111 -75 -11 18 92 27 -17
17 -16 -29 45 7 -61 -13 42
00000000: 4d4d 2527 0907 2da5 f74b ca0d 2b37 0ffb
00000010: da01 e301 2ec6 beb8 fe16 2227 ca1e e528
00000020: cead f6d6 18fa 332f 37c3 24f9 e904 1422
00000030: cb03 23d4 5e70 17dd 5e19 2017 0ce9 2817
00000040: 6725 5be5 e2d3 2304 03c9 eebd 7f2e 3104
00000050: 132f f929 dcc5 d59b 0a54 a230 401f dc12
00000060: 0d1f 183c c3b0 06f4 fbe9 1bae 5334 3b3d
00000070: 07d0 f7ca 5f3c 29dd f054 e117 ee2a 2131
00000080: 11ac 132a b01a b51a 2af6 1af6 cd09 b7cb
00000090: 382a 50f3 0c21 d2fc 1907 0a18 f63d be04
000000a0: fe3d d33a fbe5 242f 810f cfcf 13e6 c109
000000b0: befd f3b5 d4ec e114 220c 2a42 b93b 1ee3
000000c0: 113a 01f5 301d 4b08 1bf2 a33d fcdc e631
000000d0: cd21 350a 92dd 28ee 8c00 d1bf e6da b7d9
000000e0: 00fb 36d6 ff00 d6de f2c7 08fb eed8 d8bb
000000f0: 106f b5f5 125c 1bef 11f0 e32d 07c3 f32a

model_1/conv2d_3/Conv2D i1 [16, 3, 3, 16]
6 7 49 -38 -11 -57 -38 102
14 -16 31 -26 0 12 31 -69
-17 13 -1 33 72 -52 48 77
29 17 -33 -3 -115 -28 -5 -57
-41 22 -10 12 16 5 -47 -3
23 -52 -117 -35 -95 -32 -27 62
-37 -17 -7 39 11 -116 39 2
47 -31 -24 -15 16 -10 20 -76
-7 5 45 47 -47 -51 77 -14
-12 12 37 6 -124 13 6 -87
-28 -25 -45 21 -47 -38 -9 -10
20 -23 -32 13 -127 -46 -4 -38
19 -52 7 -32 -59 -35 -14 33
1 -15 2 -63 87 -43 49 -68
43 -21 39 44 -16 -74 23 27
111 3 40 -7 -27 25 13 -93
-53 -61 88 -3 -10 14 12 -48
85 -62 23 -78 28 47 -24 -20
55 -57 31 18 -31 -32 26 -21
105 -6 -63 30 99 -20 47 18
-1 -3 39 23 11 -3 -60 91
120 47 10 -2 109 35 16 23
110 71 101 -25 -8 43 53 52
55 19 -3 -43 -13 19 72 -34
59 48 -34 -9 -7 54 -27 4
51 53 16 52 92 -22 -7 17
47 -9 50 -20 -60 59 -21 -1
8 -41 51 -26 53 10 -28 65
83 76 19 10 -23 80 -23 52
-45 12 21 9 30 39 38 -29
29 -2 89 11 68 63 -22 -57
-19 -56 -14 0 68 -15 42 24
00000000: 0607 31da f5c7 da66 0ef0 1fe6 000c 1fbb
00000010: ef0d ff21 48cc 304d 1d11 dffd 8de4 fbc7
00000020: d716 f60c 1005 d1fd 17cc 8bdd a1e0 e53e
00000030: dbef f927 0b8c 2702 2fe1 e8f1 10f6 14b4
00000040: f905 2d2f d1cd 4df2 f40c 2506 840d 06a9
00000050: e4e7 d315 d1da f7f6 14e9 e00d 81d2 fcda
00000060: 13cc 07e0 c5dd f221 01f1 02c1 57d5 31bc
00000070: 2beb 272c f0b6 171b 6f03 28f9 e519 0da3
00000080: cbc3 58fd f60e 0cd0 55c2 17b2 1c2f e8ec
00000090: 37c7 1f12 e1e0 1aeb 69fa c11e 63ec 2f12
000000a0: fffd 2717 0bfd c45b 782f 0afe 6d23 1017
000000b0: 6e47 65e7 f82b 3534 3713 fdd5 f313 48de
000000c0: 3b30 def7 f936 e504 3335 1034 5cea f911
000000d0: 2ff7 32ec c43b ebff 08d7 33e6 350a e441
000000e0: 534c 130a e950 e934 d30c 1509 1e27 26e3
000000f0: 1dfe 590b 443f eac7 edc8 f200 44f1 2a18

model_1/conv2d_4/Conv2D i1 [16, 1, 1, 32]
-98 106 -69 1 -44 -24 55 56
-15 -97 9 -51 90 65 45 -38
-49 -127 -13 30 21 -41 15 53
92 20 79 45 -20 -67 -22 -38
17 -5 25 -73 57 -17 -45 -50
46 88 127 55 73 -57 18 62
76 -58 48 34 38 69 -30 29
21 -18 -81 69 -45 53 -35 -16
125 -58 21 -2 -35 80 -32 -32
-6 -127 -28 108 -105 -15 19 21
-37 -42 -71 115 -55 -54 -38 43
108 33 13 75 -94 65 111 -31
-122 -69 -51 -63 -69 -101 -35 24
-71 -50 -40 -2 -48 105 23 37
-41 52 116 31 46 127 -1 -100
12 73 -20 -61 -26 -40 35 87
-12 -57 82 50 -50 -42 9 -79
-21 -34 1 -22 -12 42 -1 -95
-12 -35 -73 -28 94 -45 -29 -4
-2 -57 -105 -19 -88 -67 127 57
-94 -87 5 23 9 65 -101 35
-127 41 -43 -53 -25 41 -1 -82
92 17 -81 -48 9 23 45 19
52 46 13 -15 40 9 24 -69
-77 70 -50 -57 80 -105 -75 -43
123 -66 -39 10 -82 65 49 -11
-31 -74 22 -94 65 -39 -60 -70
-54 60 33 -47 77 -33 -127 8
8 -11 -77 72 -46 2 68 -88
16 28 127 -16 30 -82 77 -88
-25 -10 -19 58 36 37 -83 9
-18 -28 -7 -39 -35 43 86 5
00000000: 9e6a bb01 d4e8 3738 f19f 09cd 5a41 2dda
00000010: cf81 f31e 15d7 0f35 5c14 4f2d ecbd eada
00000020: 11fb 19b7 39ef d3ce 2e58 7f37 49c7 123e
00000030: 4cc6 3022 2645 e21d 15ee af45 d335 ddf0
00000040: 7dc6 15fe dd50 e0e0 fa81 e46c 97f1 1315
00000050: dbd6 b973 c9ca da2b 6c21 0d4b a241 6fe1
00000060: 86bb cdc1 bb9b dd18 b9ce d8fe d069 1725
00000070: d734 741f 2e7f ff9c 0c49 ecc3 e6d8 2357
00000080: f4c7 5232 ced6 09b1 ebde 01ea f42a ffa1
00000090: f4dd b7e4 5ed3 e3fc fec7 97ed a8bd 7f39
000000a0: a2a9 0517 0941 9b23 8129 d5cb e729 ffae
000000b0: 5c11 afd0 0917 2d13 342e 0df1 2809 18bb
000000c0: b346 cec7 5097 b5d5 7bbe d90a ae41 31f5
000000d0: e1b6 16a2 41d9 c4ba ca3c 21d1 4ddf 8108
000000e0: 08f5 b348 d202 44a8 101c 7ff0 1eae 4da8
000000f0: e7f6 ed3a 2425 ad09 eee4 f9d9 dd2b 5605

model_1/separable_conv2d_2/separable_conv2d/depthwise1 i1 [1, 3, 3, 32]
-37 124 3 -19 -54 37 -56 40
-20 1 14 -13 -127 3 -79 27
23 16 44 39 12 -9 -3 -110
44 -12 -23 -33 5 40 10 -8
-25 91 127 26 -13 -5 38 -127
90 -47 -17 81 -42 -9 -66 -127
-27 45 76 31 27 -64 -114 -127
-33 55 -72 -48 -63 67 -23 -98
-76 -19 27 18 -7 -46 127 -94
27 25 20 66 61 -32 8 -86
-1 7 13 21 17 -84 -118 38
-127 96 -36 -46 -80 18 -62 -46
25 101 -105 106 -47 -45 -95 -35
-127 -16 -2 -50 -101 2 83 73
-1 93 50 -23 -44 -58 -72 -38
27 -9 -124 -127 1 114 -75 -21
41 127 -28 127 -108 -18 -103 -116
36 125 68 37 -9 95 74 -126
-122 112 74 73 -7 -127 -127 -6
-66 119 -127 -60 -77 127 -59 -127
-68 66 6 60 -123 -127 54 -79
4 127 127 127 -1 127 -26 -117
-64 34 125 127 -30 -109 -74 46
-116 127 -23 85 -127 55 -59 -51
127 34 -107 65 14 -7 -55 -16
-26 11 -35 -107 -65 -44 127 -49
-46 84 21 -52 -127 -51 -82 -55
20 68 -83 -105 26 49 9 -6
16 85 10 63 -75 -72 -34 -21
-6 -21 47 -30 -109 21 73 -45
-83 127 127 75 -35 -84 -41 -8
-56 88 -43 -37 -3 97 -57 -28
00000000: db7c 03ed ca25 c828 ec01 0ef3 8103 b11b
00000010: 1710 2c27 0cf7 fd92 2cf4 e9df 0528 0af8
00000020: e75b 7f1a f3fb 2681 5ad1 ef51 d6f7 be81
00000030: e52d 4c1f 1bc0 8e81 df37 b8d0 c143 e99e
00000040: b4ed 1b12 f9d2 7fa2 1b19 1442 3de0 08aa
00000050: ff07 0d15 11ac 8a26 8160 dcd2 b012 c2d2
00000060: 1965 976a d1d3 a1dd 81f0 fece 9b02 5349
00000070: ff5d 32e9 d4c6 b8da 1bf7 8481 0172 b5eb
00000080: 297f e47f 94ee 998c 247d 4425 f75f 4a82
00000090: 8670 4a49 f981 81fa be77 81c4 b37f c581
000000a0: bc42 063c 8581 36b1 047f 7f7f ff7f e68b
000000b0: c022 7d7f e293 b62e 8c7f e955 8137 c5cd
000000c0: 7f22 9541 0ef9 c9f0 e60b dd95 bfd4 7fcf
000000d0: d254 15cc 81cd aec9 1444 ad97 1a31 09fa
000000e0: 1055 0a3f b5b8 deeb faeb 2fe2 9315 49d3
000000f0: ad7f 7f4b ddac d7f8 c858 d5db fd61 c7e4

model_1/separable_conv2d_2/separable_conv2d i1 [16, 1, 1, 32]
-33 -108 -72 -102 106 38 -74 63
109 45 49 81 -85 -41 -35 96
-52 54 50 110 61 87 95 -12
-44 -103 -113 25 -82 127 -15 69
62 -54 -104 -54 127 77 -67 11
-95 61 -27 -107 -65 48 30 27
37 47 -59 51 36 14 -25 28
-5 55 -77 -35 92 14 18 28
-41 -14 -48 -2 -74 72 -43 -20
-55 21 -47 72 -42 44 46 20
13 -127 -116 61 38 -116 62 15
-53 58 54 -19 101 73 48 -81
51 -127 -46 -57 -35 19 19 126
-73 -25 35 35 -27 60 38 125
43 -119 0 86 -16 -13 -18 77
82 -27 -42 73 -51 -27 3 -19
22 37 -75 8 54 67 13 23
60 -18 -9 -9 -29 -55 -21 74
5 -55 118 64 93 25 73 -127
-52 -32 -24 -70 45 -35 -40 15
16 41 44 -66 15 -51 -29 47
96 -25 -17 48 73 -4 62 82
68 -127 -17 -39 103 59 -37 104
3 -27 10 -82 92 -17 81 -55
14 6 -23 18 42 44 20 42
-26 9 26 40 10 -17 -49 -11
26 -74 12 -35 8 36 42 -13
33 45 63 -10 -47 -127 23 10
-94 -77 -6 -61 -42 22 -40 -6
65 -6 15 57 63 36 13 -51
51 -77 14 49 -69 -18 93 -31
60 -18 127 -80 -2 -56 -37 29
00000000: df94 b89a 6a26 b63f 6d2d 3151 abd7 dd60
00000010: cc36 326e 3d57 5ff4 d499 8f19 ae7f f145
00000020: 3eca 98ca 7f4d bd0b a13d e595 bf30 1e1b
00000030: 252f c533 240e e71c fb37 b3dd 5c0e 121c
00000040: d7f2 d0fe b648 d5ec c915 d148 d62c 2e14
00000050: 0d81 8c3d 268c 3e0f cb3a 36ed 6549 30af
00000060: 3381 d2c7 dd13 137e b7e7 2323 e53c 267d
00000070: 2b89 0056 f0f3 ee4d 52e5 d649 cde5 03ed
00000080: 1625 b508 3643 0d17 3cee f7f7 e3c9 eb4a
00000090: 05c9 7640 5d19 4981 cce0 e8ba 2ddd d80f
000000a0: 1029 2cbe 0fcd e32f 60e7 ef30 49fc 3e52
000000b0: 4481 efd9 673b db68 03e5 0aae 5cef 51c9
000000c0: 0e06 e912 2a2c 142a e609 1a28 0aef cff5
000000d0: 1ab6 0cdd 0824 2af3 212d 3ff6 d181 170a
000000e0: a2b3 fac3 d616 d8fa 41fa 0f39 3f24 0dcd
000000f0: 33b3 0e31 bbee 5de1 3cee 7fb0 fec8 db1d

model_1/conv2d_5/Conv2D i1 [16, 3, 3, 16]
17 -2 29 90 117 72 8 -4
3 14 -15 -39 -21 -47 28 43
-37 -18 21 -1 -2 32 -64 -16
25 -22 14 1 2 -15 25 19
-35 72 -8 7 50 76 66 -18
-10 26 -49 -4 -46 -46 64 12
-29 -36 64 22 -20 42 -23 -13
7 -4 -40 -9 -92 -59 -32 -9
34 -37 24 -52 8 -4 -26 -16
-7 42 69 -12 51 -80 -18 29
18 66 -19 -3 10 -28 25 -22
28 -5 -52 -4 -19 -17 -34 -5
-27 45 -1 12 -69 106 13 68
9 -1 44 60 -58 66 20 -9
-20 63 -66 11 83 -8 33 -34
-2 78 -9 45 9 -20 27 42
-7 57 -9 60 127 63 93 15
-14 23 21 58 -68 44 3 -60
19 57 -1 -59 76 12 66 -17
-64 -43 -20 56 -127 -73 -18 -52
-33 -6 75 114 3 38 -13 37
5 -49 43 -53 13 -54 -39 29
8 100 52 -2 -29 -48 -1 -115
62 -21 42 41 69 19 -35 33
35 76 -53 16 -14 14 100 -58
31 -46 -14 -22 -27 -30 13 35
3 8 110 12 8 60 19 30
17 -32 64 -18 -21 -35 -24 -65
21 -10 -98 -82 43 -26 -31 -21
122 52 16 6 61 -62 7 33
-20 -20 -21 4 -61 -8 15 60
-31 -41 -32 30 -25 66 -44 29
00000000: 11fe 1d5a 7548 08fc 030e f1d9 ebd1 1c2b
00000010: dbee 15ff fe20 c0f0 19ea 0e01 02f1 1913
00000020: dd48 f807 324c 42ee f61a cffc d2d2 400c
00000030: e3dc 4016 ec2a e9f3 07fc d8f7 a4c5 e0f7
00000040: 22db 18cc 08fc e6f0 f92a 45f4 33b0 ee1d
00000050: 1242 edfd 0ae4 19ea 1cfb ccfc edef defb
00000060: e52d ff0c bb6a 0d44 09ff 2c3c c642 14f7
00000070: ec3f be0b 53f8 21de fe4e f72d 09ec 1b2a
00000080: f939 f73c 7f3f 5d0f f217 153a bc2c 03c4
00000090: 1339 ffc5 4c0c 42ef c0d5 ec38 81b7 eecc
000000a0: dffa 4b72 0326 f325 05cf 2bcb 0dca d91d
000000b0: 0864 34fe e3d0 ff8d 3eeb 2a29 4513 dd21
000000c0: 234c cb10 f20e 64c6 1fd2 f2ea e5e2 0d23
000000d0: 0308 6e0c 083c 131e 11e0 40ee ebdd e8bf
000000e0: 15f6 9eae 2be6 e1eb 7a34 1006 3dc2 0721
000000f0: ecec eb04 c3f8 0f3c e1d7 e01e e742 d41d

model_1/conv2d_6/Conv2D i1 [16, 3, 3, 16]
10 -21 -1 39 39 2 0 -8
41 11 43 86 -20 16 67 57
-44 16 -7 8 11 44 36 34
10 35 38 17 62 -7 42 15
4 37 -34 -52 9 69 2 13
64 -10 42 64 52 -39 3 61
4 43 -61 17 50 -63 -25 52
7 -11 10 47 -3 -18 -13 -36
31 49 -30 58 -5 -47 -33 72
-23 -22 -25 17 103 -5 -66 12
41 -37 -42 7 7 35 5 20
-12 -62 55 0 41 0 -12 74
-33 -17 9 -24 -15 18 3 -1
-15 -17 50 65 -20 25 -36 13
-43 -14 -23 9 8 24 46 28
-6 29 8 3 -8 22 -44 61
24 -35 39 23 -29 -1 73 -8
14 34 30 53 -65 -56 22 127
11 24 -50 -23 99 -40 21 2
30 30 14 -26 -14 -95 25 10
-62 -23 24 -12 -5 16 56 16
12 -19 -21 -12 -27 -28 -80 -39
-43 -70 23 74 11 39 -22 6
30 5 82 -11 42 -82 -69 -54
53 21 -22 -50 102 36 12 -5
37 40 -27 -65 -11 -94 -57 92
63 -26 -61 45 -16 -57 -39 -65
-7 7 50 -50 -23 -98 -41 52
0 42 -90 -16 -50 8 8 -63
10 23 -8 -34 47 -89 0 25
6 27 -22 -75 58 92 -62 -13
26 76 -82 -80 -11 -5 -63 39
00000000: 0aeb ff27 2702 00f8 290b 2b56 ec10 4339
00000010: d410 f908 0b2c 2422 0a23 2611 3ef9 2a0f
00000020: 0425 decc 0945 020d 40f6 2a40 34d9 033d
00000030: 042b c311 32c1 e734 07f5 0a2f fdee f3dc
00000040: 1f31 e23a fbd1 df48 e9ea e711 67fb be0c
00000050: 29db d607 0723 0514 f4c2 3700 2900 f44a
00000060: dfef 09e8 f112 03ff f1ef 3241 ec19 dc0d
00000070: d5f2 e909 0818 2e1c fa1d 0803 f816 d43d
00000080: 18dd 2717 e3ff 49f8 0e22 1e35 bfc8 167f
00000090: 0b18 cee9 63d8 1502 1e1e 0ee6 f2a1 190a
000000a0: c2e9 18f4 fb10 3810 0ced ebf4 e5e4 b0d9
000000b0: d5ba 174a 0b27 ea06 1e05 52f5 2aae bbca
000000c0: 3515 eace 6624 0cfb 2528 e5bf f5a2 c75c
000000d0: 3fe6 c32d f0c7 d9bf f907 32ce e99e d734
000000e0: 002a a6f0 ce08 08c1 0a17 f8de 2fa7 0019
000000f0: 061b eab5 3a5c c2f3 1a4c aeb0 f5fb c127

model_1/conv2d_7/Conv2D i1 [16, 1, 1, 32]
-19 12 -96 28 110 52 -2 11
103 -15 -57 84 -28 -69 37 66
35 -19 -29 -72 -9 -127 101 97
-75 -44 26 32 78 -11 36 -23
-15 111 -127 -104 -109 16 62 -39
1 70 -96 22 -7 -69 -49 60
97 93 77 105 -11 -8 49 79
-46 -62 -100 -26 -71 -28 31 -54
-103 19 64 127 -8 -43 44 -104
-46 -30 -60 53 94 9 -93 -31
53 11 -66 74 104 -24 51 50
-59 -5 -78 51 34 17 28 107
-16 38 -81 19 18 -21 -48 -39
-127 -57 53 121 71 -8 25 107
-27 -12 -114 44 7 -63 17 2
83 -56 -43 12 -103 49 -60 49
-67 -102 -110 18 -42 -42 19 93
52 -51 32 44 -84 114 26 -108
-112 2 -38 -79 -67 10 31 -127
-77 -53 35 21 1 -28 -96 29
88 -80 -85 -84 -3 -27 -69 114
-112 103 73 -41 32 49 16 121
-58 54 -127 -17 -1 -10 52 -7
80 -53 -47 -53 -45 -8 -22 -45
-70 23 64 -127 -46 64 -64 67
6 -46 -12 85 84 21 -47 -25
-76 -82 -18 -105 88 -36 -5 9
-7 40 -72 4 22 15 -58 3
29 61 -13 -75 5 95 -50 44
-127 94 -96 2 -32 12 -58 11
-63 23 -24 -24 -72 -63 -10 -19
-80 -34 42 95 41 20 35 -10
00000000: ed0c a01c 6e34 fe0b 67f1 c754 e4bb 2542
00000010: 23ed e3b8 f781 6561 b5d4 1a20 4ef5 24e9
00000020: f16f 8198 9310 3ed9 0146 a016 f9bb cf3c
00000030: 615d 4d69 f5f8 314f d2c2 9ce6 b9e4 1fca
00000040: 9913 407f f8d5 2c98 d2e2 c435 5e09 a3e1
00000050: 350b be4a 68e8 3332 c5fb b233 2211 1c6b
00000060: f026 af13 12eb d0d9 81c7 3579 47f8 196b
00000070: e5f4 8e2c 07c1 1102 53c8 d50c 9931 c431
00000080: bd9a 9212 d6d6 135d 34cd 202c ac72 1a94
00000090: 9002 dab1 bd0a 1f81 b3cb 2315 01e4 a01d
000000a0: 58b0 abac fde5 bb72 9067 49d7 2031 1079
000000b0: c636 81ef fff6 34f9 50cb d1cb d3f8 ead3
000000c0: ba17 4081 d240 c043 06d2 f455 5415 d1e7
000000d0: b4ae ee97 58dc fb09 f928 b804 160f c603
000000e0: 1d3d f3b5 055f ce2c 815e a002 e00c c60b
000000f0: c117 e8e8 b8c1 f6ed b0de 2a5f 2914 23f6

model_1/conv2d_8/Conv2D i1 [16, 3, 3, 32]
14 -40 -67 -22 -4 55 -9 -40
-45 -3 -1 42 12 -45 -28 -9
36 4 15 12 -44 16 8 -36
-18 -89 -43 -68 -10 -17 -51 23
-13 35 1 26 32 61 52 5
60 62 -38 32 7 -3 -6 7
-27 -21 96 38 -18 -57 2 -62
-46 -12 1 -11 38 29 84 -29
36 -46 20 -39 8 -34 15 -31
4 -10 53 -6 70 37 -32 20
30 56 67 29 -24 -40 -47 37
-55 -1 -21 0 84 50 44 30
-4 -3 -22 -58 -58 -4 -38 -5
8 -27 -51 15 -11 62 -18 -17
-18 2 -8 16 -68 43 7 38
-3 -7 -16 26 -58 -24 -30 27
29 -12 69 57 16 75 -9 -6
47 53 -11 75 -16 12 -10 49
-30 53 2 -22 -1 -8 28 16
-38 -37 -37 2 43 -40 11 17
1 -4 -17 -16 -18 46 -22 9
38 7 88 22 87 -7 9 -47
22 127 11 24 -79 -5 6 -5
-9 -14 -5 -48 66 21 15 -11
1 -23 12 9 -32 25 -29 9
-26 -13 -43 31 -29 -13 38 28
8 -49 7 44 -44 -15 12 -10
-22 66 -14 44 9 4 34 -10
41 69 -39 37 -9 34 16 38
36 -1 2 66 22 37 83 32
30 -22 52 -7 70 -6 63 -74
-26 43 27 63 75 -17 37 -1
00000000: 0ed8 bdea fc37 f7d8 d3fd ff2a 0cd3 e4f7
00000010: 2404 0f0c d410 08dc eea7 d5bc f6ef cd17
00000020: f323 011a 203d 3405 3c3e da20 07fd fa07
00000030: e5eb 6026 eec7 02c2 d2f4 01f5 261d 54e3
00000040: 24d2 14d9 08de 0fe1 04f6 35fa 4625 e014
00000050: 1e38 431d e8d8 d125 c9ff eb00 5432 2c1e
00000060: fcfd eac6 c6fc dafb 08e5 cd0f f53e eeef
00000070: ee02 f810 bc2b 0726 fdf9 f01a c6e8 e21b
00000080: 1df4 4539 104b f7fa 2f35 f54b f00c f631
00000090: e235 02ea fff8 1c10 dadb db02 2bd8 0b11
000000a0: 01fc eff0 ee2e ea09 2607 5816 57f9 09d1
000000b0: 167f 0b18 b1fb 06fb f7f2 fbd0 4215 0ff5
000000c0: 01e9 0c09 e019 e309 e6f3 d51f e3f3 261c
000000d0: 08cf 072c d4f1 0cf6 ea42 f22c 0904 22f6
000000e0: 2945 d925 f722 1026 24ff 0242 1625 5320
000000f0: 1eea 34f9 46fa 3fb6 e62b 1b3f 4bef 25ff

model_1/conv2d_9/Conv2D i1 [21, 3, 3, 16]
14 -48 -31 32 -26 9 -21 37
45 -18 20 -74 -18 -9 15 28
26 -29 -59 39 80 -44 4 39
19 5 -10 72 -11 79 30 -93
-4 -6 4 -4 -26 -78 62 -42
-41 22 -41 -4 13 -19 7 -42
22 -25 47 55 -50 -8 22 61
45 28 10 25 106 11 4 -23
45 -37 -126 66 30 -39 15 -16
41 4 -69 -24 -111 31 -3 -39
-73 -35 13 -16 -52 -36 -5 -95
10 -28 41 -39 -2 -74 -127 -54
61 -23 30 -25 25 -26 13 27
-52 26 -35 20 45 35 -18 49
29 -98 -28 24 25 35 -84 12
-21 35 -52 -64 -8 -20 23 0
-24 2 -41 38 19 11 48 -38
52 -32 18 7 -31 -10 21 -43
-50 50 60 -30 -31 36 22 5
-12 -4 3 5 21 3 10 -24
10 26 -4 35 74 -12 -55 72
12 -47 62 -8 54 101 12 28
-5 53 -40 34 112 -20 -35 20
29 63 61 62 7 6 9 -21
-75 48 -4 -15 7 -56 27 -18
-3 -18 14 6 31 69 54 -25
27 -39 -15 -22 -66 -40 32 -79
-58 55 5 20 -25 -10 -39 -20
23 -56 -28 49 -63 -18 -21 -14
-74 44 -127 -62 -24 46 30 -11
48 -24 -56 -15 28 -9 0 -52
1 29 -55 -36 5 -41 -18 -48
00000000: 0ed0 e120 e609 eb25 2dee 14b6 eef7 0f1c
00000010: 1ae3 c527 50d4 0427 1305 f648 f54f 1ea3
00000020: fcfa 04fc e6b2 3ed6 d716 d7fc 0ded 07d6
00000030: 16e7 2f37 cef8 163d 2d1c 0a19 6a0b 04e9
00000040: 2ddb 8242 1ed9 0ff0 2904 bbe8 911f fdd9
00000050: b7dd 0df0 ccdc fba1 0ae4 29d9 feb6 81ca
00000060: 3de9 1ee7 19e6 0d1b cc1a dd14 2d23 ee31
00000070: 1d9e e418 1923 ac0c eb23 ccc0 f8ec 1700
00000080: e802 d726 130b 30da 34e0 1207 e1f6 15d5
00000090: ce32 3ce2 e124 1605 f4fc 0305 1503 0ae8
000000a0: 0a1a fc23 4af4 c948 0cd1 3ef8 3665 0c1c
000000b0: fb35 d822 70ec dd14 1d3f 3d3e 0706 09eb
000000c0: b530 fcf1 07c8 1bee fdee 0e06 1f45 36e7
000000d0: 1bd9 f1ea bed8 20b1 c637 0514 e7f6 d9ec
000000e0: 17c8 e431 c1ee ebf2 b62c 81c2 e82e 1ef5
000000f0: 30e8 c8f1 1cf7 00cc 011d c9dc 05d7 eed0
